Q-Learning/model.pt (torch, 808391 bytes, 10 tensors)

features.0.weight f4 [32, 1, 3, 3]
0	0xbcd90228	-0.026490286
1	0x3d16c4a7	0.036808636
2	0xbdfb74ed	-0.12278161
3	0x3d60957b	0.054830056
4	0x3dbf649c	0.093453616
5	0xbcbf84cd	-0.023378754
6	0xbdd19228	-0.10232955
7	0xbdda13d2	-0.10648312
8	0xbdd690b2	-0.10476817
9	0x3d1c9316	0.03822621
10	0x3ca61b8c	0.020276807
11	0xbecb2350	-0.3967538
12	0x3e992a64	0.29915154
13	0x3d4ce769	0.050025377
14	0xbeb61411	-0.35562184
15	0xbe33c5df	-0.1755595
16	0xbb6625de	-0.0035117785
17	0xbe69b32e	-0.22822258
18	0x3d01990a	0.03164009
19	0x3dbcc8d9	0.09217996
20	0xbbaeb4a9	-0.005331595
21	0x3d7b79a9	0.06139532
22	0xbd9642e4	-0.07336977
23	0xbc452fb0	-0.012035295
24	0xbe4a0102	-0.19726947
25	0xbe531af5	-0.20615752
26	0xbe733cd6	-0.23753676
27	0xbe8a9f9b	-0.27074894
28	0xbb554986	-0.0032545044
29	0x3e00724c	0.12543601
30	0xbe3278a4	-0.17428833
31	0x3d5cec3f	0.05393624
32	0x3c19785c	0.009367075
33	0x3eb33362	0.3500014
34	0xbe36a0cf	-0.17834781
35	0x3df459d5	0.119311966
36	0x3e956bd6	0.29183835
37	0xbe6d8267	-0.23194276
38	0x3daa3611	0.083110936
39	0xbe1e99cb	-0.15488355
40	0x3e96c942	0.29450423
41	0xbda66851	-0.081253655
42	0xbd5e0f98	-0.05421409
43	0xbdd441da	-0.10364123
44	0x3d8224df	0.06354689
45	0xbeb9e1ff	-0.36305234
46	0x3e0ac502	0.13551715
47	0xbeccf1e9	-0.40028313
48	0xbec86083	-0.39136133
49	0x3e22ddd5	0.15904935
50	0xbe8be072	-0.27319676
51	0xbdc1a095	-0.09454457
52	0xbd30bf49	-0.043151174
53	0xbd7d996b	-0.06191389
54	0xbe2de9de	-0.16983745
55	0x3d8a3d93	0.067500256
56	0xbb2f2bbc	-0.0026728949
57	0x3d7ec2fa	0.062197663
58	0x3d87d9fe	0.066333756
59	0x3d4819c2	0.04885269
60	0x3d37c59b	0.044866186
61	0x3b8b61d8	0.0042536072
62	0x3ca0b596	0.019617837
63	0xbe1dff3d	-0.15429397
64	0xbae9cf96	-0.0017838355
65	0xbc985416	-0.018594783
66	0xbdcee107	-0.10101514
67	0x3cb0b171	0.021568986
68	0xbd094cae	-0.033520393
69	0x3e75177b	0.23934738
70	0x3df21372	0.11820115
71	0x3e8efd5f	0.27927682
72	0xbbd23828	-0.0064153858
73	0xbd2025d9	-0.039098594
74	0xbda1d002	-0.079010025
75	0x3c8a8941	0.01691115
76	0x3d92f1c8	0.07175022
77	0xbe033e70	-0.12816787
78	0xbd4fde09	-0.05074886
79	0x3c3e0baa	0.011599461
80	0x3cb48dd0	0.022040278
81	0xbe7e07a1	-0.24807598
82	0xbc8d08a9	-0.017216044
83	0xbe763828	-0.2404486
84	0xbd9cc178	-0.07654089
85	0x3d1a915c	0.03773628
86	0x3e4049e2	0.18778184
87	0x3e584e2d	0.21123572
88	0xbd97c861	-0.07411266
89	0xbdd053c6	-0.101722285
90	0xbe0ea3e0	-0.13929701
91	0x3e1bf126	0.1522871
92	0x3d870237	0.06592219
93	0x3e80def9	0.25170115
94	0x3d9bbe6f	0.07604682
95	0xbd4a8672	-0.049444623
96	0xbdfae616	-0.12250917
97	0xbdc8266a	-0.09772952
98	0xbe0ebee4	-0.13940006
99	0xbe09f74c	-0.13473243
100	0xbcd9eb27	-0.026601387
101	0x3bbb1ab4	0.0057099704
102	0x3c4a0bd1	0.012331919
103	0x3bbd234b	0.0057720295
104	0x3c993184	0.018700369
105	0x3d10ae1b	0.03532229
106	0xbc6558a3	-0.013998183
107	0xbddb6389	-0.10712344
108	0xbe989af2	-0.29805714
109	0x3d9a48fb	0.07533451
110	0x3de0cae0	0.10976195
111	0xbe2812a7	-0.16413365
112	0x3b2f92aa	0.00267903
113	0x3d038e02	0.03211785
114	0xbd8fdcfd	-0.07024572
115	0x3df2f72a	0.11863549
116	0xbe161bb6	-0.14659008
117	0x3eb2acd8	0.34897494
118	0xbd8b65fd	-0.06806562
119	0x3d852429	0.065010376
120	0x3e08eaff	0.13370894
121	0x3c538405	0.012909894
122	0xbd5e8704	-0.05432798
123	0x3e1a87eb	0.15090911
124	0xbc740e5b	-0.014896001
125	0xbd58bb44	-0.052912965
126	0xbeb65c4e	-0.35617298
127	0xbd46b732	-0.048514552
128	0x3e0ef9e3	0.13962512
129	0xbe7ced43	-0.24699883
130	0x3c767137	0.015041641
131	0x3d49f880	0.049309254
132	0xbd93d752	-0.072188035
133	0xbd2b4eea	-0.041823305
134	0xbe0ddba7	-0.13853322
135	0xbddd1b49	-0.1079622
136	0x3d2cf1a8	0.04222265
137	0xbc64d441	-0.013966621
138	0xbca0a722	-0.019610945
139	0xbc407f91	-0.011749164
140	0x3e29e4f2	0.16591242
141	0x3d640d10	0.05567652
142	0xbdb1eb80	-0.08687496
143	0x3d644de8	0.05573836
144	0xbcffcc3a	-0.031225313
145	0xbd39f796	-0.045402132
146	0xbd08f58f	-0.033437308
147	0x3e28bf5c	0.16479248
148	0x3d7755b5	0.06038447
149	0x3e0dc220	0.13843584
150	0xbdebc96a	-0.11513026
151	0x3e11cd4c	0.14238471
152	0xbde536e0	-0.11192107
153	0x3e1fdcbc	0.15611547
154	0xbd9cf20d	-0.07663355
155	0xbcadeecd	-0.021232033
156	0x3cfd759e	0.030939873
157	0xbcc4fef9	-0.024047362
158	0x3b1c5ffa	0.0023860917
159	0x3d357fa0	0.044311166
160	0x3d60c9df	0.05488002
161	0xbd333d01	-0.04375935
162	0x3db11366	0.08646278
163	0xbe375ea1	-0.17907192
164	0xbe02332f	-0.12714837
165	0x3c271f83	0.010200384
166	0xbe8ba3f8	-0.27273536
167	0xbd4665c7	-0.048436906
168	0x3cde9266	0.027169418
169	0xbe308f73	-0.17242222
170	0xbe3eb5fe	-0.18624112
171	0xbdd91ed5	-0.10601584
172	0xbe622cbc	-0.22087377
173	0xbd2f2cef	-0.04276746
174	0x3e0fa48e	0.14027616
175	0xbe13d98a	-0.14438453
176	0xbdc75d7a	-0.09734626
177	0xbddf0c15	-0.10890976
178	0x3dd2ec47	0.102989726
179	0x3dcdb67b	0.10044571
180	0x3e06b230	0.1315391
181	0x3d50a8b8	0.050942153
182	0x3e4dac50	0.20085263
183	0xbd816208	-0.06317526
184	0x3c1ea3fa	0.00968265
185	0x3e36940c	0.17829913
186	0x3bc88f85	0.0061206245
187	0x3afdac28	0.0019353675
188	0x3e209907	0.15683375
189	0xbced1289	-0.028939502
190	0xbdc36bdf	-0.09542059
191	0xbc4798ef	-0.012182458
192	0xbe0b69da	-0.13614598
193	0xbbaf7434	-0.0053544287
194	0x3cc79dcb	0.024367234
195	0x3e5c9aee	0.21543476
196	0x3e3bc23f	0.18335818
197	0x3e4d4005	0.20043953
198	0x3ca396eb	0.019969424
199	0xbe1c4038	-0.15258873
200	0xbe621750	-0.22079206
201	0xbde377f5	-0.11106864
202	0xbc3eba5e	-0.011641113
203	0x3dc11a07	0.094287924
204	0xbdba83e2	-0.09107186
205	0xbd9ae2f3	-0.075628184
206	0xbdfcf749	-0.123518534
207	0x3e7ec49a	0.24879685
208	0x3d23f5a6	0.04002919
209	0x3d7ed45e	0.062214248
210	0x3c12631e	0.008934764
211	0x3daf5de4	0.0856283
212	0x3df2f8a7	0.11863833
213	0x3e4f4a30	0.20243144
214	0xbe122106	-0.1427041
215	0xbdf32f68	-0.118742764
216	0x3e85398f	0.26020476
217	0x3d69f7df	0.057121154
218	0xbe0fe8b8	-0.14053619
219	0x3dba7748	0.09104782
220	0xbc243111	-0.010021464
221	0xbe043bdb	-0.12913458
222	0x3c852e8f	0.016257552
223	0x3c04558e	0.008077038
224	0x3d56b40d	0.052417804
225	0x3e52ff49	0.20605196
226	0x3b8e8698	0.004349541
227	0x3e2e87be	0.17043969
228	0xbda8fe14	-0.082515866
229	0xbdf04f7e	-0.11733912
230	0x3cf47584	0.029841192
231	0x3e765748	0.24056733
232	0xbc8fbe32	-0.017546747
233	0xbe4cb85a	-0.199922
234	0xbd4ffbfe	-0.050777428
235	0xba0dbe41	-0.0005407073
236	0xbeb82aeb	-0.35970244
237	0x3db75d99	0.08953399
238	0x3ddd0ee9	0.107938595
239	0x3ea2e649	0.3181632
240	0xbc1a221a	-0.0094075445
241	0x3b9d8fa0	0.004808381
242	0x3e6ebc28	0.23313963
243	0x3dce6f8b	0.10079869
244	0xbdb5e321	-0.08881212
245	0x3e968fe3	0.29406652
246	0x3e1547dd	0.14578195
247	0x3e12d10c	0.14337558
248	0x3e15b43a	0.14619532
249	0xbd19afd6	-0.037521206
250	0xbdaeb078	-0.085297525
251	0x3e302732	0.17202452
252	0xbe672110	-0.22571206
253	0xbd948d17	-0.07253473
254	0xbe737ab3	-0.23777275
255	0xbdcee390	-0.10101998

features.0.bias f4 [32]
0	0xbedea57b	-0.43485627
1	0xbed023fe	-0.4065246
2	0xbef7ad81	-0.4837456
3	0xbef75b0c	-0.4831165
4	0xbf19f63f	-0.60141367
5	0xbe59fa50	-0.21286893
6	0xbedbb5b9	-0.4291208
7	0xbed650cb	-0.41858515
8	0xbee95304	-0.45571148
9	0xbe4e9586	-0.20174226
10	0xbec3c9eb	-0.3823999
11	0xbeb4d338	-0.35317397
12	0xbe99116f	-0.29896113
13	0xbee52f8b	-0.44762835
14	0xbeb3e9a9	-0.35139206
15	0xbea07894	-0.31341994
16	0xbee02558	-0.4377849
17	0xbedac7f4	-0.42730677
18	0xbe954401	-0.29153445
19	0xbef236d1	-0.47307447
20	0xbe8d0883	-0.27545556
21	0xbeefc05e	-0.46826452
22	0xbe74b01c	-0.23895305
23	0xbebbd1c5	-0.3668348
24	0xbed17c60	-0.40915203
25	0xbed92edd	-0.42418566
26	0xbecb232d	-0.39675274
27	0xbed838f9	-0.42230967
28	0xbec09ecc	-0.37621152
29	0xbe7f2945	-0.24918087
30	0xbeea226a	-0.4572938
31	0xbf10d637	-0.56576866

features.2.weight f4 [64, 32, 4, 4]
0	0xbcc74a92	-0.02432755
1	0xbde91368	-0.113806546
2	0xbdbdbdb0	-0.09264696
3	0x3dcd9d32	0.10039748
4	0x3d48f356	0.04906019
5	0x3d338861	0.043831233
6	0xbe099549	-0.13435854
7	0xbdc43e5a	-0.09582205
8	0xbe9e6937	-0.30939648
9	0x3c7aab04	0.015299562
10	0x3daa24d2	0.08307804
11	0xbda8ed72	-0.08248414
12	0x3d8cdd1d	0.068781115
13	0xbde134d7	-0.109964065
14	0xbe7b5f7c	-0.24548143
15	0xbe770df0	-0.2412641
16	0xbde1a0e5	-0.11017016
17	0xbe01dc09	-0.12681593
18	0xbd621107	-0.05519202
19	0xbd699103	-0.05702306
20	0xbd4c02ee	-0.04980748
21	0xbccb4d01	-0.024816992
22	0xbe428f9c	-0.19000095
23	0xbd829a15	-0.06377045
24	0x3c94d377	0.01816724
25	0x3e299385	0.1656018
26	0xbe4bd2ed	-0.1990468
27	0x3d1c924b	0.038225453
28	0x3deb1639	0.11478848
29	0xbe0635d0	-0.13106465
30	0xbe578bf5	-0.21049483
31	0x3d74aaa7	0.05973306
32	0x3c2a21eb	0.010384063
33	0xbdfcbdeb	-0.123409115
34	0xbe164cc8	-0.14677727
35	0xbcac91a9	-0.02106555
36	0x3dd98ac2	0.10622169
37	0xbd8d6754	-0.06904474
38	0x3bca7e3b	0.0061795986
39	0xbe58e98f	-0.21182846
40	0xbd31b962	-0.043389685
41	0xbe07c413	-0.1325839
42	0xbcbcfc43	-0.023069507
43	0xbc59f473	-0.01330291
44	0x3e584778	0.21121013
45	0xbe0cbd03	-0.13743977
46	0xbe21b5d7	-0.15792023
47	0xbe44a9fd	-0.1920547
48	0x3d61550d	0.05501275
49	0xbd807289	-0.06271846
50	0xbd3080cc	-0.04309158
51	0xbdde79ff	-0.10863113
52	0x3d1d1864	0.03835334
53	0x3db6323f	0.088963024
54	0x3d16cb09	0.036814723
55	0x3c07d130	0.00828962
56	0x3e2289c8	0.15872872
57	0x3d506690	0.05087906
58	0x3d7e6d79	0.06211612
59	0x3c489680	0.012242913
60	0xbc5df2fa	-0.0135467
61	0xbc18d643	-0.009328428
62	0xbe916965	-0.28400722
63	0x3db97cea	0.090570286
64	0xbcd5d0ff	-0.026100634
65	0xbba83444	-0.0051331837
66	0xbe5d0713	-0.2158473
67	0xbe6afc84	-0.2294789
68	0x3cca10e4	0.024666257
69	0x3ddfb1a4	0.10922554
70	0x3d374031	0.044738952
71	0xbdf090fd	-0.11746404
72	0x3d903683	0.07041647
73	0xbde493b5	-0.111609854
74	0xbdb52d87	-0.08846574
75	0xbb9347ec	-0.0044946577
76	0x3daf8a30	0.08571279
77	0x3dd1667c	0.102246255
78	0xbd9ab116	-0.07553308
79	0x3d3a12ad	0.045427967
80	0x3d3ed11f	0.046586152
81	0xbd821d33	-0.063532256
82	0xbdb12293	-0.08649173
83	0xbe04b096	-0.12957987
84	0xbe218660	-0.15773916
85	0xbdc964aa	-0.09833653
86	0xbe5f9056	-0.21832404
87	0xbc9831e6	-0.01857848
88	0xbd400624	-0.046880856
89	0xbd33dd45	-0.04391219
90	0xbd81994b	-0.063280664
91	0xbc8aa529	-0.016924458
92	0xbdcee755	-0.10102717
93	0xbdf67115	-0.120332874
94	0x3d507560	0.050893188
95	0x3d6e7fd4	0.058227375
96	0xbdc9116c	-0.09817776
97	0xbd23a8e6	-0.039955996
98	0xbcb9c5cc	-0.022677325
99	0x3de6620a	0.11249168
100	0x3d056abf	0.032572504
101	0x3d204e67	0.03913727
102	0x3d1c7abe	0.038202994
103	0x3d610351	0.054934803
104	0xbe6345b5	-0.2219456
105	0x3d0f88fa	0.03504274
106	0xbe39446a	-0.18092504
107	0xbdf44441	-0.11927081
108	0xbe1f52af	-0.15558885
109	0xbdf2c762	-0.118544355
110	0xba597355	-0.0008295079
111	0x3d03ea77	0.032206025
112	0xbe3a1ca7	-0.18174993
113	0x3dad6a2a	0.08467515
114	0xbc94a3dd	-0.018144542
115	0xbd9e809f	-0.07739376
116	0xbe6ab132	-0.22919157
117	0xbcbe3d02	-0.02322245
118	0xbe0978e4	-0.13425022
119	0xbdb60fab	-0.08889707
120	0xbd849cd0	-0.06475222
121	0xbd3fc58c	-0.046819255
122	0xbe32efc7	-0.1747428
123	0xbdb70f1f	-0.08938431
124	0xbbc69113	-0.0060597747
125	0xbe577b3f	-0.21043108
126	0xbe1549b3	-0.14578895
127	0x3e86dfb0	0.26342535
128	0xbdb1f4f3	-0.086892985
129	0xbd229f73	-0.039702844
130	0xbe6261fa	-0.22107688
131	0xbd6e8dd6	-0.058240734
132	0xbd3966fa	-0.04526422
133	0x3d18dac9	0.037318025
134	0xbe04fd80	-0.12987328
135	0xbe6bee6a	-0.23040166
136	0xbd8a3a1d	-0.067493655
137	0xbbc7c0c8	-0.0060959794
138	0xbe0710af	-0.13189958
139	0xbdda737c	-0.10666558
140	0x3e1da087	0.15393268
141	0xbba57da1	-0.0050503765
142	0xbe3c1faa	-0.18371454
143	0xbe9bab73	-0.30404243
144	0xbdd6543b	-0.104652844
145	0xbdddd3c0	-0.10831404
146	0xbe2d5ea5	-0.16930635
147	0xbdf096f8	-0.11747545
148	0xbc1929d1	-0.009348349
149	0x3dbd2f5f	0.09237551
150	0xbe5d1bc5	-0.21592624
151	0xbde4e753	-0.11176934
152	0xbde44831	-0.11146582
153	0x3d96b75f	0.07359194
154	0xbe65d924	-0.22446114
155	0x3cd2d484	0.025736101
156	0x3e614b50	0.22001386
157	0xbe49e2d9	-0.19715442
158	0xbe86727d	-0.26259223
159	0xbe3c017a	-0.18359938
160	0x3dbd3317	0.0923826
161	0xbccff37a	-0.025384653
162	0xbe58cf5f	-0.21172856
163	0x3d2f2046	0.042755388
164	0x3d420e06	0.047376655
165	0x3df5cbcf	0.12001764
166	0xbdf704c1	-0.120614536
167	0xbdd16604	-0.10224536
168	0xbe0124a8	-0.1261164
169	0xbddbac84	-0.10726264
170	0xbcf4e0d1	-0.029892357
171	0x3c6f2597	0.014596364
172	0x3e293afd	0.16526408
173	0xbc803adb	-0.015653064
174	0xbe1746ea	-0.14773145
175	0xbe1cfcbf	-0.1533079
176	0xbdadcd0b	-0.084863745
177	0xbe3ea147	-0.1861621
178	0xbc9befc6	-0.019035231
179	0xbdd7d8cc	-0.105393976
180	0x3dd05b0a	0.10173614
181	0x3b91c3fc	0.004448412
182	0xbd85ebe9	-0.06539137
183	0x3dab6cb2	0.08370341
184	0xbdebcebc	-0.11514041
185	0xbdfeb2e9	-0.12436468
186	0xbe30a93f	-0.17252062
187	0xbd5fe2f7	-0.05465981
188	0x3dc28363	0.09497716
189	0xbc99ba96	-0.018765729
190	0xbe453421	-0.19258167
191	0xbdfbff14	-0.12304512
192	0x3e04ef80	0.12981987
193	0xbc682495	-0.014168878
194	0x3b51b5a0	0.0031999126
195	0xbe22c81e	-0.15896651
196	0x3d81e743	0.06342938
197	0xbdfb1950	-0.12260687
198	0xbdba8543	-0.09107449
199	0xbe5a7e71	-0.21337296
200	0x3ca5cc01	0.020238878
201	0xbd48eaca	-0.049052037
202	0xbe370eb3	-0.17876701
203	0xbd8eb203	-0.06967547
204	0xbc46908c	-0.012119424
205	0x3cc0260b	0.02345564
206	0x3c1987d3	0.009370762
207	0xbdc25b6f	-0.09490096
208	0xbd993f3c	-0.07482764
209	0xbde02ca1	-0.10946012
210	0xbd972e00	-0.07381821
211	0xbccd7dd3	-0.025084412
212	0xbdcfe2d1	-0.10150684
213	0xbcdf5665	-0.027262876
214	0xbd379df5	-0.044828374
215	0xbdc44a5c	-0.095844954
216	0x3ce6bbc5	0.028165707
217	0xbc0b8a99	-0.008516931
218	0x3dc772d9	0.09738702
219	0xbcabb794	-0.02096156
220	0xbe88bd87	-0.26707098
221	0x3d4c126e	0.049822263
222	0xbe3c4358	-0.18385065
223	0x3d88732f	0.066625945
224	0x3e1cee59	0.15325297
225	0x3ca6b0e0	0.020348012
226	0x3bcc84cd	0.006241417
227	0xbdc8df4f	-0.09808218
228	0x3e0cf5d0	0.13765645
229	0xbe877c69	-0.26462105
230	0xbe59a01b	-0.21252482
231	0xbbb16861	-0.0054140543
232	0xbd84bc1f	-0.06481194
233	0xbde735a5	-0.11289529
234	0xbd5d6561	-0.05405176
235	0xbd23abec	-0.03995888
236	0xbc676d14	-0.014125127
237	0xbda99d95	-0.082820095
238	0x3ba962b4	0.005169237
239	0xbd97734d	-0.07395039
240	0x3d319fcd	0.04336529
241	0xbe032f52	-0.1281102
242	0x3e06c8d6	0.1316255
243	0xbded3a6c	-0.11583409
244	0xbd4ca5c0	-0.04996276
245	0xbdac9017	-0.084259205
246	0xbc2ad86d	-0.0104275765
247	0xbda655c2	-0.08121826
248	0xbd6b7415	-0.05748375
249	0xbe12b945	-0.14328487
250	0xbd635f30	-0.0555107
251	0xbe4b0993	-0.19827871
252	0xbe19bef4	-0.15014249
253	0xbd9f6648	-0.077831805
254	0xbe132382	-0.14369014
255	0x3d57ddef	0.052701887

features.2.bias f4 [64]
0	0xbe52dcac	-0.20591992
1	0x3ca7260e	0.020403888
2	0xbe6bc4a7	-0.23024236
3	0xbdb75f72	-0.089537516
4	0xbac01980	-0.0014656037
5	0xbd413969	-0.04717389
6	0xbd89c978	-0.0672788
7	0xbe27858b	-0.16359536
8	0xbd4c74d8	-0.04991612
9	0xbcf0e3aa	-0.029405434
10	0xbdae48e2	-0.08509995
11	0xbdae48b6	-0.08509962
12	0xbd70208e	-0.058624797
13	0xbdd9f17b	-0.10641762
14	0xbdcb4725	-0.09925679
15	0xbe1eb8ca	-0.15500179
16	0xbe005366	-0.12531814
17	0xbba6fe07	-0.0050962004
18	0xbd820273	-0.063481234
19	0xbe5e7038	-0.21722496
20	0xbd11bf3e	-0.035582773
21	0xbe1c4daf	-0.15264009
22	0xbe4328f9	-0.19058599
23	0xbdcb24e8	-0.09919149
24	0x3d53ddbf	0.051725145
25	0x3de4944c	0.11161098
26	0xbc2d20c8	-0.010566898
27	0x3d12cc4a	0.035839356
28	0xbe4161aa	-0.18884912
29	0xbe23c88c	-0.15994471
30	0xbd8de7f0	-0.06929004
31	0xbcb37bd8	-0.02190964
32	0xbdccb199	-0.099948116
33	0x3d45a34e	0.048251443
34	0xbdf45caf	-0.119317405
35	0xbdf60ffc	-0.120147675
36	0xbd775c9f	-0.060391065
37	0xbcd0dad2	-0.025494967
38	0xbdee5a5b	-0.11638328
39	0x3c921667	0.017832948
40	0xbd86a13b	-0.06573721
41	0xbda5ba43	-0.08092167
42	0xbca32b66	-0.019918155
43	0xbd02e4b2	-0.031956382
44	0xbc24942d	-0.0100450935
45	0xbe240853	-0.160188
46	0xbe17bc20	-0.14817858
47	0xbd97049d	-0.07373927
48	0xbd7294e4	-0.059224024
49	0xbe6520b1	-0.22375752
50	0xbd6e845f	-0.058231708
51	0xbd835e8b	-0.06414517
52	0xbcd4677d	-0.025928253
53	0xbd705b36	-0.058680736
54	0xbdbd711d	-0.0925009
55	0xbd73694c	-0.05942659
56	0xbb9a05d7	-0.004700403
57	0xbd92bb4f	-0.071646325
58	0xbe4277c2	-0.18990996
59	0xbda956e2	-0.08268525
60	0xbe05ee45	-0.13079174
61	0xbe173d16	-0.14769396
62	0xbd02ad1e	-0.03190338
63	0xbdc33609	-0.09531791

layers.0.weight f4 [256, 128]
0	0x3e517eeb	0.20458572
1	0xbd06320f	-0.032762583
2	0xbc97ef85	-0.018546829
3	0xbe5974e4	-0.21235996
4	0x3e366f2d	0.17815848
5	0x3e9c61cb	0.3054336
6	0x3c93cc7e	0.018041845
7	0xbd13152c	-0.035908863
8	0xbea93505	-0.33048263
9	0xbd926182	-0.071475044
10	0x3d15173e	0.03639912
11	0x3d3aeeae	0.04563778
12	0xbb4fb8e7	-0.0031695904
13	0xbdb1f1b5	-0.0868868
14	0xbe0fa43d	-0.14027496
15	0x3c874902	0.016514305
16	0x3d771135	0.060319144
17	0x3d9ec320	0.07752061
18	0xbde525c4	-0.11188844
19	0xbe382f05	-0.17986687
20	0x3cf2e793	0.029651439
21	0x3de857ac	0.11344847
22	0x3d9da340	0.07697153
23	0xbbdd63e4	-0.0067562927
24	0xbea8c41b	-0.32962117
25	0x3d26d39a	0.040729143
26	0x3cc06a72	0.023488257
27	0xbdaac51a	-0.083383754
28	0xbd39521e	-0.04524433
29	0xbdadcd27	-0.08486395
30	0x3b275740	0.0025534183
31	0xbdbe1631	-0.092815764
32	0xbecf0af6	-0.4043805
33	0x3dd677af	0.104720466
34	0xbe029a42	-0.12754157
35	0x3e0dd30f	0.13850044
36	0xbda1ffc0	-0.079101086
37	0x3d804d49	0.06264741
38	0x3db391e7	0.08768063
39	0xbcf97d0f	-0.03045514
40	0x3dbe1482	0.09281255
41	0xbd4fbe0d	-0.050718356
42	0x3e315db8	0.17320907
43	0x3e1a2cdb	0.15056174
44	0x3e6fb08c	0.23407191
45	0x3dfea7c0	0.124343395
46	0xbe0eee5e	-0.13958117
47	0x3e51e300	0.2049675
48	0xbb990e5a	-0.0046709003
49	0x3e16fa81	0.14743997
50	0xbe1f85a9	-0.15578331
51	0x3d54391e	0.051812284
52	0x3daf95cd	0.08573494
53	0xbde3dbf3	-0.11125936
54	0xbc856f18	-0.016288325
55	0xbc133e2f	-0.008986994
56	0xbe444326	-0.1916624
57	0x3d78144c	0.06056623
58	0xbe965362	-0.2936049
59	0xbe2f5cad	-0.17125197
60	0x3d071708	0.03298095
61	0xbd8ce3e5	-0.06879405
62	0xbe04d6d2	-0.12972572
63	0x3dfd5815	0.12370316
64	0x3dde3dd6	0.10851638
65	0xbcf2daf2	-0.029645417
66	0xbe4c04e7	-0.19923745
67	0x3d1ad3ff	0.03779983
68	0xbd9d4a38	-0.07680172
69	0xbcb4c30d	-0.022065664
70	0x3d7991f5	0.06093021
71	0xbe3b27d1	-0.18276908
72	0x3d6bea8a	0.05759672
73	0x3cc0d448	0.023538724
74	0x3d269328	0.040667683
75	0xbcc8509e	-0.024452504
76	0xbdf52335	-0.11969606
77	0xbd3b67ce	-0.045753293
78	0xbdf3d9ca	-0.11906774
79	0xbe57ba8e	-0.21067259
80	0xbd7f4bd0	-0.06232816
81	0xbe485c86	-0.19566545
82	0x3e18696b	0.14883964
83	0xbafebd4d	-0.0019435078
84	0xbdad8021	-0.08471704
85	0x3cadca6e	0.02121469
86	0xba800bc6	-0.0009769134
87	0x3db82024	0.08990505
88	0x3dd2b187	0.10287767
89	0x3e1df697	0.15426098
90	0x3e176d29	0.14787735
91	0x3df9d1d5	0.121982254
92	0xbd9aafab	-0.07553037
93	0xbdba310d	-0.09091387
94	0xbdb83141	-0.089937694
95	0xbd2f4012	-0.04278571
96	0xbdaae758	-0.083449066
97	0xbd0dff7b	-0.034667473
98	0xbd8dd67f	-0.069256775
99	0xbe89f728	-0.26946378
100	0xbd4d67ee	-0.050147943
101	0x3b9dfae0	0.0048211664
102	0xbec80492	-0.39065987
103	0xbdf0754a	-0.11741121
104	0x3e042277	0.12903772
105	0x3e50635f	0.20350407
106	0x3d459456	0.048237167
107	0xbbcdb1cc	-0.0062772986
108	0x3780a917	1.5337528e-05
109	0xbc2e8535	-0.010651876
110	0xbe23642a	-0.15956178
111	0xbe2722ff	-0.16321944
112	0x3d2fd0cd	0.042923737
113	0xbe12246a	-0.14271703
114	0x3ecf13c1	0.4044476
115	0xbb1e0906	-0.0024114265
116	0xbd3a9d61	-0.045560244
117	0xbc9a6561	-0.01884717
118	0xbe1b5276	-0.15168175
119	0xbc7a43b2	-0.015274929
120	0x3cd76fb4	0.026298381
121	0x3e0aa98b	0.13541238
122	0xbda46561	-0.08027149
123	0xbdef03a1	-0.11670614
124	0x3d2336c6	0.039847158
125	0xbc407258	-0.011746012
126	0xbe76439f	-0.24049233
127	0x3da566d1	0.08076251
128	0xbdedb557	-0.116068535
129	0xbe138911	-0.14407755
130	0xbe160f9f	-0.14654396
131	0x3e4f5ba9	0.2024981
132	0xbed21fec	-0.4103998
133	0xbe589b25	-0.21152933
134	0xbe360677	-0.17775904
135	0x3eabc341	0.33547404
136	0x3e093e26	0.13402614
137	0x3df3ce21	0.1190455
138	0xbc2f6d78	-0.010707252
139	0x3d8c5e54	0.06853929
140	0x3c50c6ef	0.012742742
141	0xbe88b91f	-0.26703736
142	0x3e5ff85b	0.21872084
143	0xbea27983	-0.3173333
144	0x3c22d8bc	0.009939369
145	0x3a9bb4d0	0.0011879448
146	0x3e2bcff0	0.1677854
147	0xbed4e17f	-0.4157829
148	0x3bab44c3	0.005226703
149	0xbda3c12e	-0.079958305
150	0xbdcdd4b4	-0.100503355
151	0xbda0f98b	-0.078600965
152	0xbcdf673b	-0.027270904
153	0xbe0b4810	-0.13601708
154	0xbdf432f9	-0.11923785
155	0xbe5ba9c0	-0.21451473
156	0x3e79f0fb	0.24408333
157	0x3d9ef7e6	0.077621266
158	0xbd90f8c7	-0.070787005
159	0xbe3bdd74	-0.18346196
160	0xbe3b430a	-0.18287292
161	0xbe237b8a	-0.15965095
162	0xbd0e888b	-0.034798186
163	0xbe043e79	-0.12914456
164	0xbc06b6a9	-0.0082222605
165	0x3d951d34	0.07280961
166	0xbe59e18a	-0.21277443
167	0xbd8db43c	-0.069191426
168	0xbde5fca9	-0.11229832
169	0x3dd55c27	0.10417967
170	0xbd8a9b9b	-0.06767961
171	0x3dc99111	0.09842122
172	0x3e25ce52	0.16191986
173	0x3e765cac	0.24058789
174	0xbea49dc6	-0.32151622
175	0xbdd0f7c6	-0.10203509
176	0xbd7aea0e	-0.06125837
177	0xbe432ca2	-0.19059995
178	0xbe078210	-0.13233209
179	0x3be6a7d8	0.0070390515
180	0x3df5fa5e	0.120106444
181	0xbdf6bb29	-0.12047417
182	0x3db072cb	0.08615645
183	0x3db8765d	0.09006951
184	0xbe4fa7dc	-0.20278877
185	0x3e0e3992	0.13889149
186	0x3d4cf1d5	0.050035316
187	0x3e79d6f3	0.24398403
188	0xbaf250e6	-0.0018487244
189	0x3d7c9e48	0.061674386
190	0xbda485aa	-0.08033307
191	0xbe3b1e6f	-0.18273328
192	0xbdb32d8c	-0.08748922
193	0xbebcd01f	-0.36877534
194	0xbc141eeb	-0.009040575
195	0xbe0501fc	-0.12989038
196	0x3dc9927f	0.09842395
197	0x3a1c7d9c	0.0005969645
198	0xbd86df6d	-0.06585584
199	0xbed90f0f	-0.423943
200	0x3d1325b7	0.03592464
201	0x3d3b4c76	0.045727216
202	0x3d466a8d	0.04844146
203	0xbd47d807	-0.048790004
204	0xbdac2682	-0.08405782
205	0xbe90b46c	-0.2826265
206	0xbe2d2863	-0.16909938
207	0x3e8e65f6	0.27812165
208	0x3dfdf66f	0.12400519
209	0x3e5917c2	0.21200469
210	0x3e418c47	0.18901168
211	0xbd5ef737	-0.05443498
212	0xbd4051b3	-0.046952914
213	0xbe8f40b3	-0.2797905
214	0xbde474db	-0.11155101
215	0xbe814a8c	-0.25252187
216	0x3ed07ff5	0.40722623
217	0xbe91071d	-0.2832574
218	0xbec8902a	-0.39172488
219	0xbe1bfc07	-0.1523286
220	0x3e2ffe68	0.17186892
221	0xbe1c7e5d	-0.15282579
222	0x3ded9e1a	0.11602421
223	0xbd9dc0a6	-0.077027604
224	0x3d301086	0.042984508
225	0xbd69b408	-0.057056457
226	0xbdf5edb1	-0.12008227
227	0xbe342433	-0.17591934
228	0x3ac42d43	0.0014967102
229	0x3d2aafc6	0.041671537
230	0xbe03f8f9	-0.12887944
231	0x3ddf3613	0.10898986
232	0xbe2fb2df	-0.17158078
233	0xbe6d04c2	-0.23146346
234	0xbc3a79ac	-0.011381548
235	0xbd87692f	-0.06611859
236	0xbd57b210	-0.052660048
237	0xbdd46712	-0.103712216
238	0xbd899121	-0.06717134
239	0xbf2ed14a	-0.682881
240	0xbeb2d593	-0.3492857
241	0xbe6b9752	-0.23006943
242	0x3e3c1798	0.18368375
243	0xbe2f16c3	-0.17098527
244	0xbe53723e	-0.20649049
245	0xbf019f8f	-0.5063409
246	0xbdfbdbce	-0.12297784
247	0xbd1d2db2	-0.038373657
248	0xbd164b81	-0.0366931
249	0xbe37d8fe	-0.1795387
250	0x3d64ca52	0.05585701
251	0xbd477457	-0.048694935
252	0xbcd9f463	-0.02660579
253	0x3d9c397b	0.07628151
254	0x3ba6aeb8	0.005086746
255	0x3c49c0d7	0.012314043

layers.0.bias f4 [256]
0	0xbe9695fc	-0.29411304
1	0x3cf5f93c	0.03002607
2	0xbe6db597	-0.23213802
3	0x3cabb678	0.020961031
4	0x3c861543	0.01636756
5	0xbdfb2947	-0.122637324
6	0xbecec413	-0.40383968
7	0xbe00dfcc	-0.12585372
8	0xbdbdbead	-0.09264884
9	0xbe17a83d	-0.14810272
10	0x3d21368b	0.039358657
11	0xbe2de821	-0.16983081
12	0xbcd1e6e3	-0.02562279
13	0xbd4c5a91	-0.04989106
14	0xbdafcd7a	-0.085841134
15	0xbdc63af6	-0.09679215
16	0xbe310940	-0.17288685
17	0xbcf70f8e	-0.030158784
18	0xbe8d20cf	-0.27564093
19	0xbd96e98b	-0.073687635
20	0xbe1b7155	-0.15179951
21	0xbebe056f	-0.3711352
22	0xbe3d012c	-0.18457478
23	0xbe1b0b04	-0.15140921
24	0xbd48afaa	-0.04899565
25	0xbda6b5ce	-0.08140145
26	0xbe0d9e70	-0.1382997
27	0xbd61e177	-0.05514666
28	0xbe326990	-0.17423081
29	0xbdc4a570	-0.09601867
30	0xbe45e92d	-0.19327231
31	0xbe1aa4be	-0.15101907
32	0xbdbbffe8	-0.091796696
33	0xbdbb5db9	-0.091487356
34	0xbe8576a5	-0.2606708
35	0xbe173278	-0.14765346
36	0xbe11c3a4	-0.14234787
37	0xbd536bde	-0.051616542
38	0xbd5ba994	-0.05362852
39	0xbd9ae513	-0.07563224
40	0xbe0df1b1	-0.13861729
41	0xbe29d99b	-0.16586916
42	0xbd9dba44	-0.07701543
43	0xbd28f080	-0.041244984
44	0xbead352a	-0.33829623
45	0xbcbb3177	-0.022850735
46	0x3d9e0ece	0.077176675
47	0xbdebc018	-0.11511248
48	0xbe2c3cd6	-0.16820082
49	0xbe0391a8	-0.12848532
50	0xbe02aa6e	-0.12760326
51	0xbe670aa0	-0.22562647
52	0xbe4c6743	-0.19961266
53	0xbe6bf50c	-0.23042697
54	0xbc6d4196	-0.014480969
55	0xbe3617e0	-0.17782545
56	0xbbf5b1b5	-0.007497991
57	0x3dd035d1	0.10166515
58	0xbdcb4f8d	-0.099272825
59	0x3da6c830	0.081436515
60	0xbc89c08b	-0.016815444
61	0xbdcd140d	-0.1001359
62	0xbe242b5a	-0.16032162
63	0xbe0fe1e6	-0.14051017
64	0xbe8c4ec6	-0.2740385
65	0xbe12aede	-0.14324519
66	0xbe630659	-0.2217039
67	0xbd8b6042	-0.06805469
68	0xbcb7bdaa	-0.022429306
69	0xbdf9ba09	-0.121936865
70	0xbe46cbba	-0.19413653
71	0xbe278abb	-0.16361515
72	0xbc574af5	-0.01314043
73	0xbc9b9e6a	-0.018996436
74	0xbe869ba8	-0.2629063
75	0xbe50a7bb	-0.20376484
76	0xbe48ea98	-0.1962074
77	0x3c20d12d	0.009815496
78	0x3becabee	0.007222644
79	0xbdbd19df	-0.0923345
80	0xbe9078ba	-0.28217107
81	0xbe0b489b	-0.13601916
82	0xbd8672ae	-0.06564842
83	0xbe39aee7	-0.18133126
84	0x3bb2c21a	0.0054552676
85	0x3b016a21	0.0019747096
86	0xbe921b93	-0.28536662
87	0xbe22a482	-0.15883067
88	0xbe3ad020	-0.18243456
89	0xbd0ab9ca	-0.03386859
90	0x3c73e0b0	0.014885113
91	0xbdfa971b	-0.12235852
92	0xbe43b2fd	-0.19111247
93	0xbe8047ac	-0.2505468
94	0xbe1ea86f	-0.1549394
95	0xbd9849e3	-0.07435968
96	0xbe930a0f	-0.28718612
97	0xbd9fa699	-0.07795448
98	0xbdde718d	-0.10861502
99	0xbe59c1d5	-0.21265347
100	0xbc151793	-0.009099859
101	0xbd8bad2b	-0.068201385
102	0xbe1ca54a	-0.15297428
103	0xbdaa4456	-0.08313815
104	0xbd2cbaae	-0.04217022
105	0x39bb2417	0.00035694308
106	0xbd71e948	-0.059060365
107	0xbe86519e	-0.26234144
108	0xbe5d5636	-0.21614918
109	0xbe8a184d	-0.26971665
110	0xbe3cade4	-0.18425709
111	0xbe12e6e4	-0.1434589
112	0xbe0f22c9	-0.13978113
113	0xbcc8ebde	-0.024526533
114	0xbd9f1122	-0.0776694
115	0xbe62bec2	-0.22143081
116	0xbe116bfd	-0.1420135
117	0xbe497cc7	-0.19676505
118	0xbeab80ea	-0.3349679
119	0xbe0d5f1d	-0.13805814
120	0xbde2fc4c	-0.11083278
121	0xbd825474	-0.063637644
122	0xbe542eb5	-0.20720942
123	0xbe833655	-0.2562739
124	0xbe4cacae	-0.19987747
125	0xbd938f87	-0.0720511
126	0xbd73d4fe	-0.059529297
127	0xbd40979e	-0.047019593
128	0xbebc5115	-0.3678061
129	0xbe5476ff	-0.20748518
130	0xbbd4a0e9	-0.0064889085
131	0xbdcee588	-0.10102373
132	0xbe3ba91e	-0.18326232
133	0xbe2b5896	-0.16733012
134	0xbe241f11	-0.16027476
135	0xbdbf0ed5	-0.09329001
136	0xbe7e54f7	-0.24837099
137	0xbe07a495	-0.13246377
138	0xbe8d0192	-0.2754026
139	0xbd4c4c9a	-0.04987774
140	0xbe87afb2	-0.26501232
141	0xbe2dd45d	-0.16975541
142	0xbe398c5b	-0.18119948
143	0xbe36dece	-0.1785843
144	0xbd92cb1f	-0.071676485
145	0xbd72d05d	-0.059280742
146	0xbdb055cf	-0.08610117
147	0xbe10df6b	-0.14147727
148	0xbe4b79e6	-0.1987072
149	0xbe464f57	-0.19366203
150	0xbe1d4104	-0.15356833
151	0xbe7abe1f	-0.24486588
152	0xbdc6e658	-0.09711903
153	0xbe1c8da9	-0.15288414
154	0xbc5f4f8c	-0.013629805
155	0xbe657ea4	-0.22411591
156	0xbe970918	-0.29499125
157	0xbdaed65b	-0.08536979
158	0xbd9298e6	-0.07158069
159	0xbd98ebdb	-0.07466861
160	0xbe143798	-0.14474332
161	0xbe26e73f	-0.16299151
162	0xbdd3e661	-0.10346676
163	0xbe4e2a8f	-0.20133422
164	0xbde3dfab	-0.11126646
165	0xbdfa719b	-0.122287
166	0xbe07710a	-0.13226715
167	0xbda23e2c	-0.079220146
168	0xbe361b52	-0.1778386
169	0xbe14dbc2	-0.14536956
170	0xbe15182f	-0.14560007
171	0xbe0f9000	-0.14019775
172	0xbe8696bf	-0.26286885
173	0xbe21593b	-0.15756695
174	0xbe30c3a8	-0.17262137
175	0xbe1903aa	-0.14942804
176	0xbe25bf61	-0.16186287
177	0x3c4251fe	0.011860369
178	0xbe172c29	-0.1476294
179	0xbea410d0	-0.32044077
180	0xbdbc8d9e	-0.09206699
181	0xbd4828d2	-0.048867054
182	0xbe0b3b3f	-0.1359682
183	0xbe67d6d4	-0.22640544
184	0xbe16c8d7	-0.14725052
185	0x3bcbd2ff	0.006220221
186	0xbdf7613a	-0.12079091
187	0xbd839f2f	-0.06426846
188	0xbe0b306b	-0.13592689
189	0xbe64f43c	-0.22358793
190	0xbd1fe9d4	-0.039041355
191	0xbed8f28b	-0.42372546
192	0xbd60fdc1	-0.0549295
193	0x3a5b41d2	0.0008363995
194	0xbd8ec62b	-0.06971391
195	0xbca7960d	-0.020457292
196	0xbe0c1597	-0.13680111
197	0xbe0bc33e	-0.13648698
198	0xbe068df6	-0.13140091
199	0xbe475c74	-0.19468862
200	0xbe8b2636	-0.2717759
201	0xbd8f1237	-0.06985896
202	0xbe223f46	-0.1584445
203	0xbdfc36a2	-0.12315108
204	0xbd270fe1	-0.040786628
205	0xbd20acd5	-0.039227325
206	0xbeb9af58	-0.3626659
207	0xbcc0990b	-0.023510477
208	0xbe2b8cfd	-0.16753002
209	0xbe2510cf	-0.16119693
210	0xbe229815	-0.15878327
211	0xbe3aae2a	-0.18230501
212	0xbd6ee390	-0.05832249
213	0xbdd54551	-0.10413612
214	0xbe8e5dd1	-0.2780595
215	0xbeb010bc	-0.34387767
216	0xbe0d0685	-0.13772018
217	0xbe03d5bf	-0.12874506
218	0xbcb2efaf	-0.021842806
219	0xbe2a49f2	-0.1662977
220	0xbe132d62	-0.14372781
221	0xbe42485e	-0.18972918
222	0xbe4f957a	-0.20271865
223	0xbe02c83d	-0.12771697
224	0xbd5a461b	-0.053289514
225	0xbe1d8e32	-0.15386274
226	0xbe2f987f	-0.17148016
227	0xbe3af93d	-0.1825914
228	0x3b3c8310	0.0028764643
229	0xbead8e97	-0.3389785
230	0xbdb456c9	-0.088056155
231	0xbe0d95a0	-0.13826609
232	0xbe809b1a	-0.25118333
233	0xbe4e4126	-0.2014204
234	0xbe2bdabe	-0.16782662
235	0x3cfda388	0.030961767
236	0xbe1c45b7	-0.15260969
237	0xbe6b5559	-0.22981776
238	0x3d986419	0.07440967
239	0xbdb3abd6	-0.087730095
240	0xbd701428	-0.058612972
241	0xbccc2aa7	-0.024922682
242	0xbe2646d9	-0.16237964
243	0xbd958769	-0.07301218
244	0xbdbcd679	-0.09220595
245	0xbe4df0e3	-0.20111422
246	0xbe5f5071	-0.2180803
247	0xbd93eba2	-0.07222678
248	0xbd876aaa	-0.066121414
249	0xbe0cafb1	-0.13738896
250	0xbe119236	-0.14215931
251	0xbe070dcd	-0.13188858
252	0xbe660630	-0.22463298
253	0xbe415b87	-0.18882571
254	0x3b31c8fa	0.0027127848
255	0x3c99956f	0.018748013

layers.2.weight f4 [512, 256]
0	0xbd46146d	-0.048359323
1	0xbc61d0ae	-0.013782663
2	0x3dc2c2c6	0.09509806
3	0xbd61f4f4	-0.055165246
4	0x3b3450ce	0.0027513984
5	0xbacd380b	-0.0015656961
6	0xbd4980bf	-0.049195047
7	0xbe72cd43	-0.23711114
8	0x3cb4c7aa	0.022067863
9	0xbd3cc5d9	-0.04608712
10	0x3d8e338e	0.06943427
11	0xbd0acba9	-0.03388563
12	0xbc7fca6c	-0.015612226
13	0x3e0e8d63	0.13921122
14	0xbdca24f4	-0.098703295
15	0xbd8ae5d3	-0.06782117
16	0x3d9a6d83	0.07540419
17	0xbe514bd6	-0.20439085
18	0x3e9318de	0.2872991
19	0xbe08343e	-0.13301179
20	0xbde20073	-0.11035242
21	0x3e8e2dc0	0.2776928
22	0xbe9655b0	-0.2936225
23	0xbd72d36a	-0.05928365
24	0xbe85def2	-0.26146656
25	0xbd211ea2	-0.039335854
26	0x3e7897b6	0.24276623
27	0xbdec1037	-0.1152653
28	0x39e76130	0.00044132164
29	0x3b22795e	0.0024791579
30	0xbe0eae54	-0.13933688
31	0x3def779b	0.11692735
32	0x3e1ec0c0	0.15503216
33	0x3bce8508	0.0063024797
34	0x3b57d9b7	0.0032936165
35	0x3e76ebe9	0.2411343
36	0xbe585b5b	-0.211286
37	0xbe37d69a	-0.17952958
38	0x3df64f90	0.12026894
39	0x3eda3a15	0.42622438
40	0x3e3da7c0	0.18521023
41	0xbd274ae1	-0.040842894
42	0x3cd7b0b2	0.026329372
43	0x3e1e0664	0.15432125
44	0x3ccb45d7	0.024813576
45	0xbe0c4535	-0.13698275
46	0x3e864350	0.2622323
47	0x3d964cee	0.07338892
48	0x3d9f1bc1	0.077689655
49	0x3ed141bf	0.40870473
50	0xbd94fae4	-0.07274416
51	0x3d164ade	0.036692493
52	0xbe07c6f0	-0.13259482
53	0x3c38780b	0.011259089
54	0x3e06a60e	0.13149282
55	0xbccce725	-0.025012562
56	0xbd81033a	-0.062994435
57	0xbd20fd8a	-0.039304294
58	0x3e4673f4	0.1938017
59	0xbe3fa0ea	-0.18713728
60	0x3dd9ce8e	0.106351
61	0x3cba3800	0.022731781
62	0x3d1c7797	0.038199987
63	0x3dee04ba	0.11621995
64	0xbe3c7235	-0.18402942
65	0xbdca90c2	-0.098908916
66	0x3eb43312	0.35195214
67	0xbe17e04c	-0.14831656
68	0xbe44759d	-0.19185491
69	0xbc960ce4	-0.018316694
70	0x3d88e58f	0.0668441
71	0xbeb944a1	-0.36185172
72	0x3e45d1c9	0.19318308
73	0xbce1fbbd	-0.027585858
74	0x3dcff138	0.10153431
75	0x3dfc0e85	0.12307457
76	0xbe00ff7a	-0.12597457
77	0x3d52d034	0.05146809
78	0x3d05df50	0.03268367
79	0xbd04fece	-0.032469563
80	0x3d8e62f2	0.06952466
81	0x3c3bbdbb	0.0114588095
82	0x3d6bbeb5	0.05755492
83	0x3df08dad	0.117457725
84	0x3e364fcc	0.17803878
85	0xbea669c0	-0.32502556
86	0x3c8f1a89	0.017468708
87	0xbe0289ba	-0.12747851
88	0x3eb8c220	0.36085606
89	0x3c8eea21	0.017445626
90	0x3e32fb7a	0.17478743
91	0xbdafea8d	-0.08589659
92	0x3e549e89	0.20763601
93	0x3d939b69	0.072073765
94	0xbe17dbdb	-0.14829962
95	0xbd84b511	-0.06479848
96	0x3e283d06	0.16429529
97	0x3dbd3c37	0.09240001
98	0x3d2a00c4	0.041504636
99	0x3d072242	0.032991655
100	0xbd896c67	-0.06710129
101	0xbd6126ae	-0.05496853
102	0xbd34033b	-0.043948393
103	0x3ea9162e	0.33024734
104	0xbe094e65	-0.13408811
105	0x3daad4a6	0.08341341
106	0xbd1c42b8	-0.038149565
107	0x3d8c7d55	0.06859843
108	0x3dba450d	0.09095202
109	0x3c33bae1	0.010969848
110	0x3da8948f	0.0823146
111	0xbd9f5e7f	-0.077816956
112	0x3d3bdf57	0.04586729
113	0x3d18f5b7	0.037343707
114	0xbc3a991a	-0.011389041
115	0xbddd114a	-0.10794313
116	0x3dd39f95	0.10333172
117	0xbdc9777a	-0.098372415
118	0x3e8c8c1e	0.2745065
119	0xbe0d6470	-0.13807845
120	0x3e3a88cb	0.18216245
121	0xbd5f1a8c	-0.054468676
122	0xbe9013b0	-0.2814002
123	0x3df8260d	0.121166326
124	0x3ead3c95	0.33835283
125	0xbddd2c55	-0.10799471
126	0x3e512eaf	0.20427965
127	0x3ca6991d	0.020336682
128	0x3ee6830a	0.4502185
129	0x3d9dee2b	0.077114426
130	0xbcbad278	-0.022805437
131	0xbd1d12d3	-0.03834803
132	0xbd71f307	-0.05906966
133	0xbe60267f	-0.21889685
134	0x3d8fb4f1	0.07016934
135	0x3be964ab	0.0071225963
136	0x3dea6cb4	0.11446515
137	0x3ebc6759	0.36797598
138	0x3e685afa	0.22690955
139	0x3e59a842	0.21255592
140	0xbee3d9d2	-0.4450212
141	0x3d1997fd	0.037498463
142	0xbd07791d	-0.033074487
143	0xbe8696a0	-0.26286793
144	0x3e413d9e	0.18871161
145	0x3e12873b	0.14309399
146	0x3df3b8df	0.11900496
147	0x3ec2e8a7	0.38068125
148	0xbd04d512	-0.032429762
149	0x3e98774d	0.2977852
150	0xbd608f71	-0.054824296
151	0xbe116144	-0.1419726
152	0x3e8f22bd	0.2795619
153	0x3f005c19	0.5014053
154	0xbc406121	-0.011741907
155	0x3e9dff19	0.30858687
156	0x3c08909f	0.008335262
157	0x3c093910	0.008375421
158	0xbd84ddcd	-0.06487618
159	0x3c125c0a	0.008933077
160	0xbd46862c	-0.0484678
161	0xbdae5ffe	-0.08514403
162	0xbe6942b1	-0.22779347
163	0xbe228632	-0.15871504
164	0x3e687ba7	0.2270342
165	0x3c8859a2	0.016644303
166	0x3d15210a	0.03640846
167	0xbcb39369	-0.021920877
168	0xbc482244	-0.012215201
169	0x3d01b6a3	0.031668317
170	0x3ca7ebb0	0.020498127
171	0x3dc4c0f4	0.096071154
172	0x3eb3d164	0.3512069
173	0x3c4d45b8	0.012528829
174	0x3d91d717	0.07121103
175	0x3e970238	0.2949388
176	0x3ccdf648	0.02514185
177	0x3e55d1ca	0.2088081
178	0xbe167b9c	-0.1469559
179	0x3e38e35a	0.18055478
180	0xbca162d9	-0.019700455
181	0x3e161cbd	0.146594
182	0xbd76cd55	-0.060254414
183	0x3d218811	0.039436404
184	0x3c8e8e67	0.017401887
185	0xbe2a9184	-0.16657072
186	0xbd9534af	-0.07285439
187	0x3dd65c17	0.104667835
188	0xbd862884	-0.065506965
189	0xbe5ce3c9	-0.21571268
190	0xbe2a5159	-0.16632594
191	0xbe27839b	-0.16358797
192	0x3edec9fd	0.4351348
193	0x3da1ab35	0.07893983
194	0xbdb6dde4	-0.08929041
195	0xbe394a7b	-0.18094818
196	0xbdab16f8	-0.0835399
197	0xbc9e7e14	-0.019347228
198	0xbc02f8d6	-0.007993897
199	0xbe21ffb2	-0.15820196
200	0x3e30dacd	0.17270966
201	0x3e00270b	0.12514894
202	0xbe331f3c	-0.17492384
203	0x3dfdd6fd	0.123945214
204	0x3e0f387e	0.13986394
205	0xbdf84812	-0.12123121
206	0x3e1be7ab	0.15225093
207	0xbdb55e98	-0.08855933
208	0xbd90aa78	-0.07063764
209	0xbe2e49da	-0.1702036
210	0xbdcd471b	-0.10023328
211	0xbdd44e04	-0.10366443
212	0x3d16b83e	0.0367968
213	0xbbe99c41	-0.0071292226
214	0xbd120aff	-0.035655018
215	0x3d3290da	0.043595172
216	0x3cfd5b7f	0.030927418
217	0xbda125a2	-0.07868506
218	0xbd71dd77	-0.059049096
219	0x3ebf8316	0.37404698
220	0x3deaf926	0.114733025
221	0xbeb2f4f4	-0.3495251
222	0x3dff7068	0.12472612
223	0x3c035e2b	0.008018057
224	0xbce16b33	-0.027516937
225	0xbdaf6338	-0.08563846
226	0x3d99aca1	0.075036295
227	0xbe36b1e4	-0.17841297
228	0xbd344bc7	-0.04401758
229	0xbe31751c	-0.1732983
230	0x3e6c79e2	0.2309337
231	0x3da4794f	0.0803095
232	0x3d09d6ba	0.033652045
233	0x3d9fa445	0.07795004
234	0xbe9fadf1	-0.31187394
235	0x3a2422a3	0.0006261265
236	0x3b92079b	0.004456473
237	0xbe1fcf38	-0.15606391
238	0xbe08bec8	-0.13354027
239	0xbdfd654b	-0.12372836
240	0xbd90cb32	-0.070700064
241	0xbca04a34	-0.019566633
242	0x3daa38af	0.08311593
243	0x3e386338	0.18006599
244	0xbd7fd5f0	-0.062459886
245	0x3dc5604f	0.0963751
246	0x3e2ab703	0.16671376
247	0x3d84032a	0.06445916
248	0x3ecfe985	0.4060785
249	0xbdbd57ad	-0.092452385
250	0x3e771cdd	0.24132104
251	0xbe3f0041	-0.1865244
252	0xbe5cceac	-0.21563214
253	0x3c9946dc	0.018710546
254	0xbdd9db80	-0.106375694
255	0x3e1d1962	0.15341714

layers.2.bias f4 [512]
0	0xbe8337fe	-0.25628656
1	0xbdc88340	-0.09790659
2	0xbdc15a2b	-0.09441026
3	0xbe3a9c97	-0.18223797
4	0xbe006466	-0.12538299
5	0xbd87c051	-0.06628478
6	0xbe0504cf	-0.12990116
7	0x3c933257	0.01796834
8	0xbdcec5ad	-0.100962974
9	0xbe8dd128	-0.27698636
10	0xbdc9cc54	-0.098534256
11	0xbe2e970f	-0.17049812
12	0xbdf58a1a	-0.119892314
13	0xbd34e050	-0.044159234
14	0xbd370fa4	-0.04469265
15	0xbdaa0929	-0.083025284
16	0xbe0b7ff4	-0.13623029
17	0xbe047fb5	-0.12939341
18	0x3d30d719	0.043173883
19	0x3cfdce19	0.030982064
20	0xbdf11ad0	-0.11772692
21	0xbdc545e6	-0.09632473
22	0xbdc946d9	-0.09827966
23	0xbde81cd1	-0.11333621
24	0xbdb0c0c1	-0.08630515
25	0xbe37174e	-0.17879984
26	0xbe4c77f6	-0.19967636
27	0xbe0cf583	-0.1376553
28	0x3cc54b29	0.02408369
29	0xbdbe83db	-0.09302493
30	0xbe1048f5	-0.14090331
31	0x3cb63050	0.022239834
32	0xbd736ffa	-0.05943296
33	0x3d5022eb	0.05081455
34	0xbe320b0a	-0.17387024
35	0xbe4277d7	-0.18991028
36	0xbe46ee03	-0.19426732
37	0xbc9b74c8	-0.018976584
38	0x3d22b3d6	0.039722286
39	0xbd2975ef	-0.041372236
40	0xbda7fa12	-0.08201994
41	0xbdad7324	-0.08469227
42	0xbe9fb107	-0.3118975
43	0xbe0ef8f0	-0.1396215
44	0xbcf3a7eb	-0.029743155
45	0xbdd94e89	-0.106106825
46	0xbdbc9bf5	-0.09209434
47	0xbd7962fc	-0.060885414
48	0xbe1ceebb	-0.15325443
49	0xbd112608	-0.03543666
50	0xbe1fab92	-0.15592793
51	0xbe6353da	-0.22199956
52	0xbe12ab5f	-0.14323185
53	0xbc6b4d6e	-0.014361722
54	0xbdaaf67a	-0.08347793
55	0x3c307c27	0.010771788
56	0xbd5855e9	-0.052816305
57	0x3ca03682	0.019557241
58	0xbe0025c1	-0.12514402
59	0xbdc1cb9d	-0.09462664
60	0xbe8b8f59	-0.27257803
61	0xbddce8b4	-0.10786572
62	0xbd497ffb	-0.049194317
63	0xbdefccbf	-0.11708974
64	0xbdc2696e	-0.09492765
65	0xbe12a7e2	-0.14321855
66	0xbe671d50	-0.22569776
67	0x3d4c5e2c	0.049894497
68	0xbd4ade7d	-0.049528588
69	0xbe569c64	-0.20958096
70	0xbe33b64c	-0.1755001
71	0xbd43364c	-0.047659203
72	0xbd22ac2e	-0.039714985
73	0xbd9a10c1	-0.07522727
74	0x3d8586ef	0.06519877
75	0xbe3c36b8	-0.18380249
76	0xbe08ff2c	-0.1337859
77	0xbe82fbe3	-0.255828
78	0xbdd1bcaa	-0.10241063
79	0xbdb3b6c4	-0.08775094
80	0xbdd94424	-0.106087
81	0xbe36ee43	-0.17864327
82	0xbe14b512	-0.14522198
83	0x3ccc9301	0.02497244
84	0x3d6ba7b2	0.057532974
85	0xbdb4928c	-0.08817014
86	0xbd8fcc70	-0.07021415
87	0xbdd11634	-0.10209313
88	0x3d33b197	0.043870535
89	0x3cc1086f	0.023563592
90	0xbd16b2a4	-0.03679146
91	0xbe1dbbb5	-0.15403636
92	0x3d3cebc6	0.04612329
93	0xbe027b84	-0.1274243
94	0x3d3b8577	0.04578158
95	0x3c14b495	0.009076257
96	0xbd8d44f7	-0.068979196
97	0xbe1ab1fd	-0.1510696
98	0xbe506a83	-0.20353131
99	0xbc331d0a	-0.010932216
100	0xbcc8b04e	-0.024498131
101	0xbbe37ba9	-0.0069422317
102	0xbd863242	-0.06552555
103	0xbc9f8226	-0.01947124
104	0xbdaaaa4b	-0.08333262
105	0xbda0a361	-0.07843662
106	0xbc76abc9	-0.015055605
107	0xbdd02328	-0.101629555
108	0x3c85289f	0.016254721
109	0xbe78d77d	-0.24300952
110	0xbe8162c5	-0.25270668
111	0xbe3a4092	-0.18188694
112	0xbe3fa1a0	-0.18713999
113	0xbddc202b	-0.10748323
114	0xbe1b4c47	-0.15165816
115	0x3b85ab25	0.00407924
116	0xbdc4eeed	-0.09615884
117	0xbc9f8add	-0.019475395
118	0xbe228700	-0.15871811
119	0xbdc1ebc9	-0.094688006
120	0xbc505c93	-0.012717384
121	0x3c4011b5	0.011722972
122	0xbe393263	-0.18085627
123	0xbe0d903d	-0.13824554
124	0xbddf6dac	-0.1090959
125	0xbe053907	-0.13010035
126	0xbe1bfabb	-0.15232365
127	0xbe114878	-0.14187801
128	0xbdc08d4b	-0.094019495
129	0xbe1b1582	-0.15144923
130	0xbe09a0a2	-0.13440183
131	0x3de4c27a	0.11169906
132	0xbe0efa0f	-0.13962577
133	0xbe149e2d	-0.14513464
134	0xbe1337f7	-0.14376818
135	0xbe3d90bb	-0.18512242
136	0xbe534002	-0.20629886
137	0xbe9dc487	-0.30814
138	0xbe6a085f	-0.22854756
139	0xbe643d4e	-0.22289011
140	0xbdd8b565	-0.10581473
141	0xbde726cc	-0.11286697
142	0xbdc8de41	-0.098080166
143	0xbc2c10da	-0.010502065
144	0x3d312c17	0.043254938
145	0xbdce9549	-0.10087068
146	0xbe344bb0	-0.17606997
147	0xbdcc1421	-0.09964777
148	0xbd15cff1	-0.03657526
149	0xbe5193fe	-0.20466611
150	0xbd4c84eb	-0.049931448
151	0x3aba3c4e	0.0014208646
152	0xbb84ec0d	-0.0040564598
153	0xbdbea344	-0.09308484
154	0xbd6c0668	-0.057623297
155	0xbe321685	-0.17391403
156	0xbdda8ec6	-0.10671763
157	0xbd932573	-0.07184877
158	0xbcd3ff00	-0.02587843
159	0xbda6a92d	-0.081377365
160	0xbe19ffe8	-0.15039027
161	0xbe1fe25e	-0.15613696
162	0xbe39d517	-0.18147694
163	0xbe0bce78	-0.1365298
164	0xbe419833	-0.18905716
165	0xbe380b22	-0.17972997
166	0xbda40b72	-0.080099955
167	0xbe0b253e	-0.13588426
168	0xbcd47638	-0.025935277
169	0xbd457257	-0.048204746
170	0xbe2a4d62	-0.16631082
171	0xbe38777c	-0.1801433
172	0xbdec3e9c	-0.11535379
173	0xbdc2d9a0	-0.09514165
174	0xbe06a190	-0.13147569
175	0x3d063c8e	0.032772593
176	0xbd340d45	-0.043957967
177	0xbade8136	-0.0016975764
178	0xbdd43734	-0.10362092
179	0xbe9909a4	-0.29890168
180	0xbd584b3f	-0.052806135
181	0xbeab20bb	-0.3342341
182	0xbe982334	-0.29714358
183	0xbd4d92f5	-0.050188977
184	0xbd6e96b3	-0.058249187
185	0xbe4aaba3	-0.19792037
186	0xbe1276f3	-0.14303188
187	0xbc40a57b	-0.011758204
188	0xbdf9ccf0	-0.12197292
189	0xbdaaa052	-0.0833136
190	0xbccc2943	-0.024922019
191	0xbd964368	-0.073370755
192	0xbd957548	-0.0729776
193	0x3dbaf859	0.091294
194	0xbda9696d	-0.082720615
195	0xbcc9ed55	-0.024649302
196	0xbde1ee6c	-0.110318035
197	0xbcb8da55	-0.022565046
198	0xbdba3093	-0.09091296
199	0xbd383809	-0.044975314
200	0x3c9477bc	0.0181235
201	0xbd947988	-0.07249743
202	0xbdbaf478	-0.0912866
203	0x3c1f9eff	0.0097424975
204	0x3d8cc939	0.06874318
205	0xbdfa947e	-0.12235354
206	0xbe1b5af7	-0.15171419
207	0x3d0d172d	0.03444593
208	0xbdc8bc6f	-0.09801566
209	0xbe7b7792	-0.24557331
210	0xbdedb0d4	-0.11605993
211	0xbe73c3dc	-0.23805183
212	0x3d533eb2	0.051573463
213	0xbd94ac6d	-0.0725945
214	0xbd9e7334	-0.07736817
215	0xbbba2605	-0.005680802
216	0xbd18e0c3	-0.037323724
217	0xbea919a4	-0.33027375
218	0x3d253f67	0.04034367
219	0xbe5615dd	-0.20906778
220	0x3dd5f4ce	0.104470834
221	0xbe725b17	-0.2366756
222	0xbe44d64f	-0.19222377
223	0xbe10ec53	-0.1415265
224	0xbe24ef38	-0.1610688
225	0x3c1ce012	0.009574907
226	0xbe93a0ea	-0.28833705
227	0xbda24aab	-0.07924398
228	0xbdac9638	-0.084270895
229	0xbe16445d	-0.14674516
230	0xbe04aba5	-0.12956102
231	0xbe351ea9	-0.17687477
232	0xbdef9aa8	-0.1169942
233	0xbdcafd2c	-0.0991157
234	0xbe1803f6	-0.14845261
235	0xbe06167c	-0.13094515
236	0xbd44bfc1	-0.048034433
237	0x3d7bd8a8	0.061485916
238	0xbdf36dd6	-0.11886184
239	0xbd2bfa78	-0.041986912
240	0xbe6879e3	-0.22702746
241	0xbe630ebc	-0.2217359
242	0xbd85859b	-0.06519624
243	0xbdf59fbc	-0.119933575
244	0xbd2697fe	-0.040672295
245	0x3d0c4f35	0.034255225
246	0xbcad89a3	-0.021183794
247	0xbe64b669	-0.22335209
248	0xbd3e316c	-0.04643385
249	0xbe56729e	-0.2094216
250	0xbdaa3177	-0.08310216
251	0xbe3dce7f	-0.18535803
252	0xbd6ff4b0	-0.05858296
253	0xbec03430	-0.37539816
254	0x3c80712a	0.01567896
255	0xbe1516b3	-0.1455944

layers.4.weight f4 [7, 512]
0	0x3e091c5c	0.13389724
1	0x3c7e6456	0.015526852
2	0x3d686726	0.056738995
3	0xbdf95e00	-0.12176132
4	0xbd919146	-0.07107787
5	0xba9216c2	-0.0011145698
6	0x3d9870dd	0.07443402
7	0x3e1fa9be	0.15592095
8	0x3d001b24	0.031275883
9	0x3e6000e5	0.21875341
10	0xbc8e45c0	-0.017367244
11	0xbe02481b	-0.12722819
12	0xbd99ae68	-0.075039685
13	0x3e8038c2	0.25043303
14	0x3ecc3e71	0.3989139
15	0x3c8c9ca5	0.017164538
16	0xbed1915a	-0.40931207
17	0x3ced4193	0.028961932
18	0x3d585b24	0.052821293
19	0x3d5c6e76	0.05381628
20	0xbd13c208	-0.036073714
21	0x3e6b4e1d	0.22979017
22	0xbe77f419	-0.2421421
23	0x3d6b2f9c	0.05741845
24	0x3cf99730	0.0304676
25	0x3e53d0bf	0.20685099
26	0xbc9a0e9d	-0.018805796
27	0xbdf679d6	-0.12034957
28	0x3cfe3372	0.03103039
29	0xbb6cdb16	-0.0036141328
30	0xba5cd70c	-0.00084243785
31	0x3d0354ae	0.03206318
32	0xbcf320ad	-0.029678667
33	0x3d6ef943	0.058343183
34	0xbd44e141	-0.04806638
35	0xbec0a086	-0.3762247
36	0xbe0239f6	-0.12717423
37	0x3cc6a439	0.02424823
38	0x3ee8d79c	0.45476997
39	0x3e17102f	0.14752267
40	0x3928f9f2	0.0001611484
41	0x3ebff5e2	0.3749228
42	0xbd8fd9b7	-0.07023948
43	0x3d3c57aa	0.04598204
44	0xbd6d40ae	-0.05792301
45	0xbd6b387a	-0.057426907
46	0xbedca80d	-0.43096963
47	0x3c75b808	0.01499749
48	0xbeb6ad97	-0.35679314
49	0x3d62a3b3	0.055331897
50	0x3daf5772	0.08561601
51	0x3d0e1f4e	0.034697823
52	0x3baf9b50	0.005359091
53	0xbe0f4c5a	-0.1399397
54	0xbcca45ce	-0.024691489
55	0x3f2336c2	0.6375543
56	0x3ed02df9	0.40660074
57	0xbd9c7107	-0.07638746
58	0x3d88b1e6	0.066745564
59	0x3af71b23	0.0018852692
60	0xbf72bca5	-0.948191
61	0xbea85829	-0.3287976
62	0xbe2b4a5a	-0.16727582
63	0x3e1fd3ab	0.15608089
64	0xbea1aa8a	-0.31575423
65	0xbe637e90	-0.22216249
66	0xbd5c1528	-0.053731114
67	0x3dbed0e4	0.093171865
68	0xbd12edfa	-0.035871483
69	0xbcb2d1a2	-0.021828476
70	0x3d3db1df	0.04631221
71	0x3d4e9a29	0.050439987
72	0xbf15ab1d	-0.58464223
73	0x3d58027f	0.052736755
74	0x3cbda602	0.023150448
75	0x3d68e1cd	0.056855965
76	0x3dd3d347	0.10343032
77	0xbd721a83	-0.059107315
78	0xbe6a9cc2	-0.22911361
79	0xbd13f708	-0.03612426
80	0x3c870d1c	0.016485743
81	0xbe22dc2a	-0.15904298
82	0x3cbf2eb9	0.023337709
83	0x3da21cb7	0.07915633
84	0x3d4b0e36	0.0495741
85	0xbd08742e	-0.033313923
86	0xbe3b56a3	-0.18294768
87	0xbbaebe40	-0.005332738
88	0x3d9637dc	0.07334873
89	0x3d035cd1	0.03207094
90	0x3d44cb08	0.04804519
91	0xbd54bc68	-0.05193749
92	0x3d41d407	0.047321346
93	0x3b62d06a	0.0034609088
94	0xbd02e8d6	-0.03196033
95	0xbe061f58	-0.13097894
96	0x3dfcad82	0.123377815
97	0xbcbf49c3	-0.023350602
98	0x3e0c6111	0.13708903
99	0xbe797fc7	-0.2436515
100	0xbd0ab557	-0.033864345
101	0x3e29d2aa	0.16584268
102	0xbc190681	-0.00933993
103	0x3e3f2564	0.18666607
104	0x3d3bbb48	0.045832902
105	0x3c9e4dae	0.01932415
106	0x3c61e033	0.013786363
107	0x3c156b39	0.009119802
108	0x3d0ba452	0.034092255
109	0xbe4cab25	-0.19987161
110	0xbe3f4ae5	-0.18680914
111	0xbde94c63	-0.11391523
112	0x3c7dadca	0.015483329
113	0xbdd235dd	-0.1026418
114	0x3d1c729d	0.03819524
115	0x3e423591	0.18965746
116	0x3dbfca98	0.093648136
117	0xbcd00292	-0.02539185
118	0xbd030438	-0.031986445
119	0x3dd6b4e7	0.10483723
120	0x3f068653	0.5254871
121	0xbe6764c0	-0.22597027
122	0xbd70b045	-0.058761854
123	0xbc760963	-0.015016886
124	0x3cacb615	0.021082917
125	0xbe99a17a	-0.3000601
126	0xbed1ca65	-0.40974727
127	0x3d533957	0.051568355
128	0x3dc6c2ca	0.09705122
129	0xbc5ba59e	-0.013406185
130	0xbbc78cdd	-0.0060897903
131	0xbef0c92d	-0.47028485
132	0x3deb6e40	0.11495638
133	0xbdcf5904	-0.101244
134	0xbee0a033	-0.43872222
135	0xbea135bf	-0.31486318
136	0xbcdf001c	-0.027221732
137	0xbf84a341	-1.0362321
138	0xbdd92a97	-0.106038265
139	0x3df9c095	0.12194935
140	0x3ad9ab9d	0.0016606931
141	0xbc9f2826	-0.019428324
142	0x3d5903f8	0.0529823
143	0x3ca84cf3	0.020544505
144	0x3cf04f9e	0.02933484
145	0xbe9999ae	-0.3000006
146	0x3e5f4bd7	0.21806274
147	0x3de1d423	0.1102679
148	0xbd38f8f2	-0.045159288
149	0x3dfe2191	0.12408746
150	0xbabdd0d3	-0.001448179
151	0x3e21afe0	0.15789747
152	0x3b9ea028	0.0048408695
153	0x3c37abd3	0.0112104
154	0xbe394838	-0.18093956
155	0xbd8a0295	-0.06738774
156	0xbe4269e8	-0.18985713
157	0xbd0d4f03	-0.03449918
158	0x3cffda13	0.031231916
159	0xbe347d01	-0.1762581
160	0x3e0cd730	0.13753963
161	0xbe83b2d3	-0.2572237
162	0x3edf384b	0.43597636
163	0xbaa9dbf1	-0.0012959224
164	0xbe9334f0	-0.28751326
165	0x3e38d1ef	0.18048833
166	0x3d0e3b83	0.034724724
167	0x3d2dbb72	0.04241509
168	0x3be5fad0	0.0070184246
169	0xbdcfbff6	-0.101440355
170	0xbe7a53c7	-0.24446021
171	0x3ea24d4f	0.31699607
172	0xbc80dd26	-0.015730452
173	0xbe36f41c	-0.17866558
174	0x3f18f53a	0.59749186
175	0x3d63216c	0.055451795
176	0xbe0fe5a5	-0.14052446
177	0xbe0ddf92	-0.13854817
178	0xbdbca92d	-0.09211955
179	0xbe3e0580	-0.18556786
180	0xbe028e6d	-0.12749644
181	0xbd32260c	-0.043493316
182	0x3d261513	0.04054744
183	0x3ca49f6b	0.020095548
184	0x3e3cb755	0.1842931
185	0x3da0667f	0.078320496
186	0x3d89b0d9	0.06723184
187	0x3e387232	0.18012312
188	0x3c5bb17a	0.013409013
189	0xbd5f5847	-0.054527547
190	0x3b6b9078	0.0035944264
191	0x3d0152fa	0.031573273
192	0x3e72f6a3	0.23726897
193	0x3d481878	0.04885146
194	0xbe5100b3	-0.20410423
195	0xbe4efd5c	-0.20213836
196	0x3e933a31	0.28755334
197	0xbd9c4f4f	-0.076323144
198	0xbde3cd1d	-0.11123107
199	0x3d3be176	0.045869313
200	0x3f20526b	0.6262576
201	0xbdc32052	-0.09527649
202	0x3d8681ad	0.065677024
203	0x3e100c5c	0.14067215
204	0xbdca75d2	-0.09885754
205	0xbd93d256	-0.07217853
206	0x3bd63a14	0.006537685
207	0x3f08b61e	0.5340289
208	0x3d59a9bf	0.053140398
209	0xbf685c7a	-0.9076611
210	0x3c9c8834	0.019107915
211	0xbe9d226f	-0.30690333
212	0x3d535234	0.051592067
213	0x3ceb23c8	0.028703585
214	0x3d67f880	0.056633472
215	0x3e1ec92e	0.15506431
216	0xba525d8f	-0.00080248056
217	0xbd912a44	-0.0708814
218	0x3e96f1f9	0.29481485
219	0xbe492ab3	-0.19645195
220	0x3ea10a2c	0.31453073
221	0xbdd941ca	-0.106082514
222	0xbe255820	-0.16146898
223	0xbda2d5ad	-0.07950912
224	0x3cca57c6	0.024700057
225	0x3dc5159a	0.09623261
226	0x3daea04e	0.085266694
227	0xbbda27d5	-0.0066575804
228	0x3bcd663a	0.00626829
229	0x3cd959fb	0.026532164
230	0x3d963ffd	0.073364235
231	0xbdaf378b	-0.08555516
232	0x3d85e368	0.06537515
233	0xbd26617c	-0.040620312
234	0xbd4b6806	-0.04965975
235	0xbd802d28	-0.06258613
236	0xbde95c93	-0.1139461
237	0x3e749a58	0.23887002
238	0x3d988993	0.07448115
239	0xbe8af25d	-0.27138034
240	0xbd402a5b	-0.046915393
241	0xbe85f271	-0.2616153
242	0xbc42349c	-0.011853363
243	0xbce89e7b	-0.028395882
244	0xbe7c2289	-0.24622549
245	0xbf0f0ed9	-0.5588203
246	0x3dd219f1	0.10258854
247	0xbe0ff59a	-0.14058533
248	0x3e9a8cd7	0.30185577
249	0x3d9da2cd	0.076970674
250	0x3e0cabaa	0.1373736
251	0x3e0ab5db	0.13545935
252	0xbdce6d08	-0.1007939
253	0xbf24c564	-0.64363694
254	0x3d2cf1eb	0.0422229
255	0xbe163d1b	-0.14671747
